Project2 & 3/mnist/part2-mnist/mnist_model_fully_connected.pt (torch, 906007 bytes, 8 tensors)

weight f4 [32, 1, 3, 3]
00000000: 4c11 853e b884 0ebd 6d84 5bbf 4902 563e
00000010: 291c 6f3f 33e1 543e 0bd3 2cbf 8001 913e
00000020: 91de 5a3d e8f2 04bf f82b 983e a515 2a3e
00000030: 8bf3 9ebe 8068 143e 4b9f aa3e 2031 c3be
00000040: c600 663e 8f60 e13e 2507 57be 8393 c6bd
00000050: c61b 3dbe f971 d6be dd16 a3be 195e 5abc
00000060: cf5c aebe 190e 873e 4d0c c53e 92e2 3fbe
00000070: 8a28 b2be 6d38 053d b555 5b3c 56b1 0a3e
00000080: 0b5c f23d 1fe7 97be 279d c03c e68e bf3e
00000090: 9808 5c3e 32f4 f03e 6342 8bbd 168f e23c
000000a0: 56da 9bbd b5d6 18bf 5bd8 d53e 5799 8bbd
000000b0: 59e5 e33c 28ae 6a3d 91fe dcbe 99d2 6abe
000000c0: fa9c 923e e6bd 11bf 7103 03bf 167f 423f
000000d0: 8089 1a3f aa44 9d3e 078f 3abe 0583 30bf
000000e0: fddc e0be 1c2d d3be 9088 1c3d 8132 1f3f
000000f0: 27e1 1f3f 991f 0b3f 8657 82be 4260 013e
00000100: 18fb c4be 7d9b 47be d8fa b53e 9973 2fbe
00000110: 55b9 d43d 652b 9b3e b28a 56bd 370a d73d
00000120: 6c1f d03e 92b6 cbbe 9654 41bf 4d60 a03e
00000130: 51c6 ad3e e68f a1bc 61bc 00bd 8fcc ae3e
00000140: b38e 703e 181e 7ebe f0c2 103e 94f8 96be
00000150: 70d8 493e 8c5a 7d3d c556 1dbf 7c8c 003f
00000160: d5ef f13e f560 fbbe bf67 79bd 554a 113e
00000170: 101e 58bd eeef 6cbd 347d 5fbe efb6 673e
00000180: 4fbe a0be 2999 863e 33f1 57bd ec24 d0bc
00000190: f651 d0be 3715 78be b24b 05bf a389 e0bd
000001a0: 9fe9 b3be 541a c1be a3ef 25be 8abc 81bd
000001b0: 7591 f0bd 8077 49be e88d b2bd bea9 69be
000001c0: 9949 bbbe 9366 96be a7e7 a33e 718a b83d
000001d0: e067 a0be c145 823e f2ac 92bd 5910 03bf
000001e0: 1f6c 45be c05e 16be de06 91be 4e30 e03e
000001f0: f648 1d3e 3dcc 073f 5e39 a0be dfa8 7cbe
00000200: 2c78 f93d 35f7 0a3f 96d3 0b3f 7058 df3e
00000210: e670 84be 1771 adbe 70c0 0bbf 01b3 d6be
00000220: 684f 1cbf 9d05 e4be 615a e1bd 5ebc 2a3e
00000230: 0871 543e 9c37 03bc e311 ce3e 3743 7c3e
00000240: dd55 13bf 936a 433e 9afa fb3e e287 3cbf
00000250: 3d9f 783e 4c27 e13e 8d85 f1be 08d5 203e
00000260: 978b 823d 3233 39bf fc06 f23e 9b8e 013f
00000270: 7f79 05bd 91c5 813f 85e7 dbbe 4db7 103f
00000280: 10b6 bd3e 4e12 58bf 038e 5b3f 6fbb ef3e
00000290: 2ce2 0f3f 569c 48be 7e27 b83e c9a3 9fbd
000002a0: fb2b 51bf 40d5 87bf fadb 75be 8fb8 f53d
000002b0: 333c 9b3c 8a9a 22bc 7d96 5ebe 68ab 1cbe
000002c0: d372 a3be 20b0 89be 49b8 85be b5f1 203e
000002d0: b3b5 233f 4808 213f cdc7 a5be c1f8 e13e
000002e0: beea 06bf de98 23bf 1522 3cbe 918f d9be
000002f0: cc4f 32bd 4b2c 973e 6f82 0a3d fde1 d0be
00000300: 9a52 da3e c4d0 78be 0827 6cbe d9ca 113e
00000310: faa1 8d3d 7a53 61be 3a35 1f3d 1e7c 5dbc
00000320: fed0 39be 27c7 49be ca92 653e a9fc 54be
00000330: 5f46 16be 9c8c cc3d 849f 89bc a1ef a7be
00000340: 9a86 a73e 95be 89bd 0823 dbbe c0dd 8d3e
00000350: eba0 443e a05c f8be bf75 963e 69d6 873d
00000360: 8dbc 31be c4c2 c13e 7856 313e 3e8b e4bd
00000370: c2f1 dd3c 5408 013f d56a 16bf f69b d0be
00000380: a7d3 46bd 5499 3fbe 4bf2 3b3e 072a acbe
00000390: 1f06 863e 1d88 b63e b045 c1bd 9b0b 00be
000003a0: f5b8 713d d9f6 d43d 1c4b 9ebe 1f1a 09be
000003b0: b31f 65be 4193 b93e 97ab 81be a572 dcbe
000003c0: 4c20 66bd f53c d93e a53d 123f cc57 bb3e
000003d0: 3b3d 823d b357 73be 712d 22bc 8b15 293e
000003e0: b292 54be 5c18 b7be a768 a5bd da73 6cbe
000003f0: 15a3 f6be 5445 0fbf 6b87 6f3d 32c2 edbe
0.2598976 -0.03479454 -0.8574894 0.20899309 0.93402344 0.20789032 -0.67509526 0.28321457
0.053434912 -0.51933146 0.29721045 0.16609819 -0.31045184 0.14492989 0.33324656 -0.38123417
0.22461233 0.4401898 -0.20998819 -0.096961044 -0.18467626 -0.4188383 -0.3185338 -0.013328099
-0.34055182 0.26377943 0.38485947 -0.18738773 -0.34796554 0.032524515 0.013387133 0.13544211
0.11833962 -0.2966852 0.023512436 0.3741371 0.21487653 0.47061306 -0.06799772 0.02765612
-0.07610004 -0.59702617 0.4176663 -0.06816357 0.027819322 0.057294995 -0.4316297 -0.22931899
0.2863539 -0.5693039 -0.51177126 0.7597517 0.6036606 0.3071645 -0.18218623 -0.6894992
-0.439186 -0.41245353 0.038216174 0.6218644 0.6245293 0.5434509 -0.254574 0.12634376
-0.3847282 -0.19492908 0.3554294 -0.17133941 0.10386912 0.30306545 -0.052378364 0.10499995
0.40648973 -0.39787728 -0.7551969 0.31323472 0.33940366 -0.019721936 -0.031429652 0.3414044
0.23491935 -0.24816167 0.14136863 -0.29486525 0.1971147 0.06185393 -0.61460525 0.5021436
0.4725329 -0.4909741 -0.060889956 0.14188512 -0.052763045 -0.057846002 -0.21825105 0.22628377
-0.31395194 0.26288727 -0.05272026 -0.02540823 -0.4068753 -0.24226843 -0.52068627 -0.10963752
-0.35139176 -0.377154 -0.16204695 -0.06334789 -0.11746494 -0.19674492 -0.08718473 -0.22818658
-0.36579588 -0.29375133 0.32012674 0.090107806 -0.3132925 0.25443843 -0.07161893 -0.5119682
-0.19279526 -0.14684582 -0.28325552 0.43786854 0.15359864 0.5304602 -0.31293768 -0.24673794
0.12181124 0.5428346 0.5461973 0.4362216 -0.25867385 -0.33875343 -0.5459051 -0.41933444
-0.61058664 -0.44535533 -0.110035665 0.16673419 0.20746243 -0.008008864 0.4024802 0.24635015
-0.5755289 0.19083624 0.4921463 -0.7364484 0.24279495 0.43975294 -0.47172204 0.15706265
0.06374281 -0.7234374 0.47270954 0.50608224 -0.03258657 1.0138417 -0.42950073 0.56529695
0.37052965 -0.8440293 0.8576357 0.46822688 0.56204486 -0.19590887 0.3596763 -0.077949114
-0.81707734 -1.0611954 -0.24009696 0.119980924 0.018949604 -0.00992454 -0.21737094 -0.15299761
-0.3192354 -0.26892185 -0.2611716 0.15717204 0.63949126 0.6290326 -0.32378998 0.44135097
-0.5270194 -0.6390513 -0.18372376 -0.42492345 -0.04353313 0.2952598 0.033815797 -0.40797415
0.42641145 -0.24298388 -0.23061764 0.14237536 0.0691566 -0.220045 0.03886912 -0.013518361
-0.1814613 -0.19704877 0.22419277 -0.20799507 -0.14675282 0.099877566 -0.016799696 -0.3280001
0.3271988 -0.06725804 -0.42800164 0.27708244 0.1920201 -0.48508167 0.29386708 0.06632692
-0.17357083 0.37843907 0.17318141 -0.11159371 0.027092818 0.5040333 -0.5875676 -0.4074399
-0.04854169 -0.18710834 0.18354146 -0.33625814 0.26176545 0.3565072 -0.0943712 -0.12504427
0.05901428 0.10398645 -0.3091668 -0.1338887 -0.22375374 0.36245158 -0.25326225 -0.43056217
-0.056183144 0.4242932 0.5712531 0.3659042 0.06359335 -0.23763923 -0.009898529 0.16512124
-0.20759085 -0.35760772 -0.080766015 -0.23091069 -0.48171297 -0.5596516 0.058478754 -0.46437222

bias f4 [32]
00000000: 0e3e 84be dd65 1dbe 3fac 2f3e de25 f9bd
00000010: 8cb1 39be ee6c 13be 21b3 5ebd be77 febd
00000020: 9793 8abe 9f30 09bd eb19 9fbe e0d7 f63e
00000030: babd 773e 47f7 a9bd b5c5 33bc f0f9 863d
00000040: 4ebd 38bd 6f75 2abf 70c3 aebd f765 12be
00000050: cc16 703d e4e2 2dbd f721 71bd 6830 133d
00000060: abe7 63bd 41f3 1dbe af98 b8bc efdd 1ebd
00000070: a71e 93be c024 6bbe dc55 43be d5ef 9f3d
-0.25828594 -0.15370889 0.1715555 -0.12165426 -0.18134135 -0.14397022 -0.05437005 -0.12425183
-0.27065727 -0.033493634 -0.3107446 0.48211575 0.24193469 -0.082991175 -0.01097243 0.065906405
-0.04510241 -0.6658544 -0.085333705 -0.14296709 0.05861549 -0.042452708 -0.058870282 0.035934836
-0.055640858 -0.15424825 -0.022533743 -0.03878587 -0.28734323 -0.22963238 -0.19075722 0.07809416

weight f4 [64, 32, 3, 3]
00000000: 5c63 88bd 0fab 9d3d 8b9c 9f3c 0d0f ccba
00000010: 3ea1 c8bd d627 a5bd f6b6 293c addd 063e
00000020: 46ed 9c3c b40d 9abd 6a69 cf3b 3642 233e
00000030: ee12 99bd ddb8 20bd b1d8 afbc 6fa3 883c
00000040: 9f98 353d defa 8cbc 6f9a 843c f01b acbd
00000050: 81eb a3bd 5cd1 f5bb c26c 50bd 06ac ec3b
00000060: c7d3 d5bd 13ae ecbc 47b5 1ebd 100d 113d
00000070: ea2f cabc fe8c e13b 99e4 563d 91c5 96bd
00000080: 3de2 463c 9123 a2bc 69c9 cfbc d7b8 783d
00000090: 76f7 4abd 596d 89bd fb82 d53b 1f60 51bd
000000a0: d199 bb3c 12ea 52bd 7e97 3bbc 1d03 03bd
000000b0: 53da d1ba fb91 2e3c 5a5d ccbd 4f27 d1bd
000000c0: 4e11 f93d 844f 483e 930c 973d 9c7a 883c
000000d0: 6c88 6d3c 70c7 4c3d e189 72bd 12a0 80bd
000000e0: b329 70bd 3694 1f3d 44ad cabc 543f 36bd
000000f0: 5752 893c 3e41 7b3d cd70 2f3d b32f 99bd
00000100: 390f ccbb d4a5 703c 20eb 96bc 83d9 883d
00000110: 4852 1d3d 2344 4a3d 7ee5 953c a55f 023d
00000120: 0f6a 1fbd 4cf0 1dbd 65e8 c7bc 13e2 70bd
00000130: 32a8 683c 2bd0 30bb 04a3 1e3d 4456 653d
00000140: 0453 213c 2f2b 9bbd 1ca6 83bd db83 06bd
00000150: bcb0 5b3d 96ae 153d d7fe 89bd 9b4f 663b
00000160: 2c44 533c e737 8d3d bf39 973c 4969 243d
00000170: 200c 1cbd dfe1 fbbb 4731 28bd 8fbc 6abd
00000180: 9228 4cbb f348 14bd a0f2 b93c c792 373c
00000190: 16ff debd 5e1d e9bd 88cf 96bd bd1c 6cbc
000001a0: 787f f8bd b761 c4bc c24d bdbd f8c6 d0bd
000001b0: 5a05 463d a968 56bd 4c8a e1bd 927e 4fbd
000001c0: b6e3 1bbd b872 55bc f9af d0bc d16f 16bc
000001d0: ef13 adbd eaff 6abd 22ab d6bd a13e 83bd
000001e0: 3d28 573d 9de7 143d 2201 913b 2195 02bd
000001f0: f82c 15bc d5a7 063d 1feb 323d 9563 b53b
00000200: da6d 2c3d ac21 83bd 6269 91bd e62e 45bb
00000210: 66a4 7d3d b1c4 c4bb 604b 9abd 63cd 97bd
00000220: fbbf b5bd b402 cabc 4f49 163d 21b3 32bd
00000230: 35ef d8bd 55c3 edbc 5be0 8a3c b555 aa3d
00000240: 8110 453c 36a7 933d e640 a43d 6c1f 56bd
00000250: 08c3 c1bd a968 aa3b c4ba 0ebd 00ec 80bd
00000260: 2bd2 a9bc 4bb5 9ebd 7a42 8ebd 7753 b33d
00000270: 9d52 9cbc d7c5 03be fbce 19be 7e84 113c
00000280: 7552 52bd d998 ad3d 5c0e a53c 1b13 333d
00000290: 1699 d93d 0edf dabd 458c 723d 6f74 6b3d
000002a0: 5c68 b0bd cd1b 083d c844 24bd 8d65 1a3d
000002b0: 0b3b 5a3d 5a4c c9bc 2f53 35bd 70d9 9ebc
000002c0: cfeb 57bd c93a 353d 8986 323c c13a d83c
000002d0: 4f92 23be 9274 5cbd af33 f6bc 18bd cabd
000002e0: 25a0 8bbd b4c7 fcbc 9053 acbd 099f ffbd
000002f0: c020 f1bd 2d37 e1bd 6c48 a43a 679e 27bd
00000300: 9c1b 763c d6c5 4fbb 6aca f7bc ee53 cfbc
00000310: 4d0a 5c3c 6da5 5fbd ba93 233d 2313 693c
00000320: 8248 ac3c 8192 2d3c d723 5f3d 3fd2 a03c
00000330: fb10 d9bc ec71 373d 8bbd 61bc 0ebf dbbb
00000340: 1eb8 d4bc 6727 3e3c 2af7 65bd 39e3 0abd
00000350: 732a 2ebb c17d adbd 1bf8 6dbc 8bca a5bc
00000360: 38dc 46bc d2b6 2a3d f501 a93d 333b 39bd
00000370: e669 aa3b 6f3d aa3d 90dc 3c3d 3e16 953c
00000380: 2b4a 5dbd 2573 c5bd 1fb2 b73c 8546 843d
00000390: 7d71 273d d96f 34bd 2c19 80bc 7a4c 7e3d
000003a0: 66f0 a0bc a02c 5e3d 9267 a5bd dfef c2bd
000003b0: 053d f3bc 136d 023e 583a 323c 1fd5 183c
000003c0: a28f 173c 139b c23d ca0d 443d d0ef e3bb
000003d0: ec99 463b f1c7 0fbd 0d85 98bc 9035 b3bc
000003e0: c1c3 883c a03c a63c fa0c e53c 940a 62bd
000003f0: ac49 12bd 8861 bcbd a147 453d caec 5e3d
-0.06659576 0.076986425 0.019483825 -0.001556845 -0.097963795 -0.08064239 0.010358563 0.131705
0.01915611 -0.07522145 0.006329705 0.15943226 -0.07474314 -0.0392388 -0.021465631 0.016679494
0.044335004 -0.017209467 0.01618692 -0.08403766 -0.08003903 -0.007501764 -0.05088497 0.007222655
-0.10440784 -0.028891599 -0.0387471 0.035412848 -0.02468105 0.0068832627 0.0524641 -0.073619016
0.0121389 -0.01979235 -0.025364595 0.060723152 -0.049552403 -0.067103095 0.006515858 -0.05111706
0.022900494 -0.051492758 -0.011449693 -0.03198539 -0.00160105 0.010654922 -0.09978743 -0.10212576
0.12161504 0.19561583 0.07375445 0.016660027 0.014497858 0.049994886 -0.059213523 -0.06280531
-0.058633517 0.038959704 -0.024740823 -0.04449399 0.016762896 0.061341517 0.042832185 -0.07479801
-0.0062274006 0.014687974 -0.018422663 0.06682112 0.038408548 0.049381386 0.018297907 0.031829495
-0.038919505 -0.038559243 -0.024402807 -0.05880935 0.014200257 -0.0026979547 0.038729683 0.055990472
0.009846453 -0.07576596 -0.06428167 -0.03284059 0.053635344 0.03654345 -0.0673806 0.0035142663
0.012894671 0.06895428 0.018460153 0.04013947 -0.0380975 -0.007686838 -0.04106262 -0.05730873
-0.0031152111 -0.036202382 0.0226987 0.011204428 -0.108884975 -0.113825545 -0.07363802 -0.014411149
-0.12133688 -0.023972375 -0.09243347 -0.101942 0.048344947 -0.052345905 -0.11012706 -0.050657816
-0.03805896 -0.013027839 -0.025474535 -0.009181933 -0.08451068 -0.057372965 -0.1048186 -0.0640843
0.05252861 0.036353696 0.004425184 -0.0318805 -0.00910496 0.0328749 0.04368126 0.0055355527
0.04209695 -0.06402907 -0.07100178 -0.0030087768 0.06192436 -0.0060048928 -0.07533908 -0.07412221
-0.08874508 -0.024659492 0.036691006 -0.043627862 -0.105925 -0.029023806 0.016952684 0.083171286
0.012027861 0.07209627 0.08020191 -0.05227606 -0.094610274 0.0052004647 -0.034846082 -0.062950134
-0.020730099 -0.07749423 -0.06946273 0.08756154 -0.019082362 -0.12868439 -0.15020363 0.008881686
-0.05134817 0.08476419 0.020148449 0.043719392 0.10624902 -0.106870756 0.059215803 0.057484087
-0.08613655 0.033229638 -0.040104657 0.037694503 0.053278964 -0.02457254 -0.044268783 -0.019390792
-0.05271512 0.044245515 0.0108963335 0.026395204 -0.15973781 -0.053822108 -0.030053942 -0.09899348
-0.068176545 -0.030856945 -0.08414376 -0.124815054 -0.11773825 -0.10996852 0.001253379 -0.04092255
0.015021231 -0.0031703613 -0.030247886 -0.025308575 0.01343019 -0.05460112 0.039935805 0.014225754
0.021030668 0.010594011 0.05447754 0.019631503 -0.026497355 0.04478638 -0.013778101 -0.006706125
-0.0259667 0.011606074 -0.056143917 -0.033908103 -0.0026575595 -0.08471251 -0.014524485 -0.020238182
-0.012137465 0.041678257 0.082523264 -0.045222472 0.0052006124 0.08312499 0.046108782 0.018199082
-0.05402581 -0.09641103 0.022423802 0.06458763 0.040879715 -0.04405198 -0.015637003 0.062084652
-0.01964588 0.054241776 -0.08076395 -0.09518408 -0.029692182 0.12736921 0.010878168 0.009328156
0.009250553 0.09502234 0.047864713 -0.006956078 0.0030304147 -0.03510279 -0.018618131 -0.021876127
0.016694905 0.02029258 0.02796029 -0.05518587 -0.03571479 -0.0919829 0.048164014 0.05442504

bias f4 [64]
00000000: 74a2 64bd 02ee cb3b 0eda c03c 14cd 0cbd
00000010: ae57 94bd 6ecc c9bc a611 06be 4b28 6ebe
00000020: bd73 74bd 8bd8 63be f4ea 35bd d6ae 20bd
00000030: b0b3 26bd ab24 8dbd 627a acbd e96e 7abd
00000040: d267 dabd b8c8 f5bc 769e 70bd 0ecd 59bd
00000050: 7e97 96bd 68b7 25bd f94e 22bc 74dc 46bd
00000060: 29e7 9fbd 6c32 15bd 0352 9dbd 0d62 37bd
00000070: 3b94 21be 8763 b8bc 9c1e 0ebd 36cb debd
00000080: f656 e5bd 51ec 86be 9394 52bd 3a3c 24bd
00000090: b99b bfbd e0c8 07bc 9fbe 59bd 4f7d 3ebd
000000a0: 2bc6 2dbd 1678 99bd d11f 59be 8ced 2cbd
000000b0: b770 4abd 774f a1bd 1c03 1b3d 541d e9bb
000000c0: 7a34 89bc 39d1 19be 1d4b b3bc dd95 893c
000000d0: c0f2 61bd f7f8 3dbe 746a ecbd b099 d1bc
000000e0: 021f 2fbd 9793 59be 55f4 d6bb 8697 29bd
000000f0: 58ef f1bb 581e 38be e63a 73bd 8c0d e6bc
-0.05581899 0.006223441 0.023541477 -0.034375265 -0.07243286 -0.024633612 -0.1309267 -0.23257558
-0.05968069 -0.22250573 -0.044413522 -0.039229237 -0.040698707 -0.068917595 -0.0842178 -0.06114093
-0.106643334 -0.030002937 -0.05874487 -0.05317407 -0.073531136 -0.040458113 -0.009906524 -0.048550084
-0.07807762 -0.03642504 -0.07681658 -0.044771243 -0.15779202 -0.022508396 -0.03469716 -0.10878603
-0.11198227 -0.2635217 -0.051411223 -0.0400965 -0.093558736 -0.008287638 -0.053160306 -0.046506222
-0.042425316 -0.07493608 -0.21203543 -0.04221873 -0.0494239 -0.07876485 0.037844762 -0.007114092
-0.016748656 -0.15021218 -0.021886403 0.016795093 -0.055163145 -0.18552004 -0.11543742 -0.02558598
-0.04275418 -0.21247707 -0.0065598884 -0.04140427 -0.0073832683 -0.17980325 -0.05938234 -0.028082632

weight f4 [128, 1600]
00000000: 17ec aebc c978 b13b 62ea 7b3d 755f d03c
00000010: 0be1 183d 207c 013c 607c adbc c723 a9bc
00000020: d483 56ba 432d 813c 241d b2bc 48f6 89bc
00000030: 6e84 f13b 36fb 013d 2ef1 fb3c e1de 9d3b
00000040: b45a 1c3d 3df1 1e3d 731d 473c 0802 b03c
00000050: 4f58 c0bb 2771 eb3a 446b 963c cf7f 9dba
00000060: a66b 193b e545 87bc 6874 cc39 7dfa 8c3b
00000070: 98f2 9d3c 0cb9 bdbc 7702 b1bc 9ffb 1dbc
00000080: 44c8 333c 9088 f53c f788 24bb 05af 3abc
00000090: 9184 cdbc 4953 263d 71ca 1f3d 753c 093d
000000a0: 7815 ffbc 0cf8 623b 3c8f 963c ee41 6cbc
000000b0: 4e3e 253b bebd 4c3c 9662 35b8 8f0f 4d3d
000000c0: cd3f 2c3c f0ad 11bd fa60 cdbb eb33 b7ba
000000d0: 6601 db3c a685 9cbc 47e7 16bc 20fb 93bc
000000e0: 34be 4ebc 4820 9d3c b693 0b3b 0f85 febb
000000f0: 6eb2 8ebc aeb7 bd3a 13ef 0d3c d184 7a3c
00000100: 6b4b 94bc e29a 79bc cadf d23b 329e 84bc
00000110: 4daa a23c 2842 38bc 9b06 9b3c 0aa0 a4bc
00000120: af4b cd3b b5a5 e03b bafa 9bbc 9d46 a9bc
00000130: e104 cfbc 3938 e2bc 70dd 9bbd fa15 09bb
00000140: 9c5a e53c 9e4f 6abc d074 7e3c eb4b 85bd
00000150: c567 57b8 ab0c 273c f099 ef3c 3cfd 603d
00000160: c94a 5a3c 4ecf 48bb 59f1 233b ecd8 5ebd
00000170: 121b 9d3b 62d8 b03c 7c0e b43b 7555 a03c
00000180: 8d94 0abd 8c67 0fbc 5686 18bd 95d3 953c
00000190: 98ae ba3c 8ebc 0c3d 8d1e 683d 1c17 483d
000001a0: d353 003c 01f8 d8bc 0671 a3bb 650d 5e3d
000001b0: 746f 4b3d e8a1 ebbb 2b90 c638 864c c0bc
000001c0: caf2 f3bc 03cb 593c 1eb4 aa3b 5529 40bc
000001d0: 8ce5 1fbc d334 98bc d699 583c 3db7 7dbb
000001e0: 4cf1 923c b7b3 b83d 3174 bf3c a431 993b
000001f0: c389 2abd 76ce f5bb 506b 35bb a302 0c3d
00000200: 68d0 c23c 8583 a0bc dde8 d4bc 28a5 563c
00000210: 7943 0d3d 6f95 2fbb 95e5 8dba 39e0 09bd
00000220: e370 983b 45f0 983d 55ba 1a3d 94be fd3c
00000230: 2f1c f9bc 7000 fa3c a50c 313c 73b0 47bb
00000240: 6bfc 2dbc 304f 9bbb 87b5 e73c 8700 0dbd
00000250: 302e 3b3c 6648 c2bc 117e 83bc 6d64 c3ba
00000260: 1fac e8bc 289d 823c a44d 993c ee21 a53c
00000270: a593 f13a bce5 223d 7fa8 083b c3d4 11ba
00000280: dc4d bfbb 5f3c 173d ab18 1c3b 6ce4 323c
00000290: 6e17 eebb 2049 59bc 6a53 acbc 319a 25bb
000002a0: afa0 1ebd 641b debb 4e01 873b f3c7 99bc
000002b0: 06fa 07ba 10ff 1c3c 11b5 16bc 3119 3b3a
000002c0: 634b 553c 9334 373d d0f4 f53d 683e 25b9
000002d0: 1282 833b 4d9e 533d 069b 523d 310f 5b3c
000002e0: 6da6 e73b b0f8 23bb 40f6 f4bc 1d0f 55bc
000002f0: 9ed2 d8bc 8485 a73b 2310 d5bc 853b 1cbc
00000300: 64cc 71bc e3c5 2cbc 8ebb 103d b0a7 05bc
00000310: 7f1b e4bb 16fd afbd e7f1 563c 15f8 53bc
00000320: 5949 103c 0c52 9ebc 8378 f73c 83f6 573c
00000330: 55c2 a03c 6544 4d3b 8ae1 bd3c 72fd 2dbd
00000340: abd1 0ebd eaea a7bc 5921 dbbb 19f0 69bc
00000350: 8d27 283c 8c86 e23a 2955 cb3c 4b00 553c
00000360: 70a2 233d 1901 613d b7b3 f13c 4b4e fcbc
00000370: b450 9b3c fbc8 393d 80c7 033d e8f7 393c
00000380: bd22 8bbc f0a7 00bd 05be 6f3d 4848 413d
00000390: 2888 983d 6215 a93c 60d2 e5bc 28f0 6d3c
000003a0: ad2c 41bd d846 3c3d 239a 543d f295 90bc
000003b0: af78 81bd a236 1dbd 20e9 003d 866d 99bc
000003c0: 897c 4c3c 8d6d dcbc 8547 483d 4023 6238
000003d0: 8276 b9bd ee19 0b3c 0427 76bc 3d7b 18bd
000003e0: 0095 e4bc 89b0 08bd aa5b 85bc 5814 ffbb
000003f0: da15 1bbd 0f54 6ebc fbe9 d13b a26d a43b
-0.02135281 0.00541601 0.06150282 0.025436142 0.037323993 0.007903129 -0.02117747 -0.020646943
-0.0008183096 0.015768653 -0.021742411 -0.016841069 0.007370523 0.031733714 0.030754652 0.004817829
0.03817244 0.03880428 0.012153017 0.021485344 -0.005869902 0.0017962799 0.018361695 -0.0012016239
0.002341011 -0.01651282 0.00038996642 0.0043023215 0.019280717 -0.023159526 -0.02160762 -0.009642511
0.01097304 0.029972345 -0.0025106051 -0.011394267 -0.025087627 0.04060677 0.039011423 0.033504922
-0.031138167 0.003463271 0.018378846 -0.014420016 0.0025214138 0.01249641 -4.3245578e-05 0.050063666
0.010513258 -0.03556627 -0.006267664 -0.0013977265 0.026734065 -0.019106697 -0.009210414 -0.018064082
-0.01261859 0.019180432 0.002129776 -0.0077673267 -0.017419066 0.0014474296 0.008662957 0.015290455
-0.018102368 -0.015234681 0.006435369 -0.016188715 0.019856596 -0.011246242 0.018924048 -0.020095844
0.0062651257 0.0068556913 -0.019040454 -0.020663554 -0.025270881 -0.0276147 -0.07610595 -0.002091764
0.027997307 -0.014301209 0.01553078 -0.06508621 -5.1356637e-05 0.010195891 0.029248208 0.054929003
0.013323494 -0.0030641141 0.002501568 -0.05440609 0.004794487 0.021587554 0.0054948907 0.019572
-0.033833075 -0.008752715 -0.037237488 0.018289367 0.02278833 0.034359507 0.05666976 0.048850164
0.007832485 -0.026485445 -0.0049878387 0.054211993 0.049666837 -0.0071909316 9.468229e-05 -0.02347399
-0.029778857 0.013293031 0.00520946 -0.011728604 -0.009759318 -0.018579876 0.013220271 -0.0038713955
0.017937325 0.09018653 0.023370834 0.004675107 -0.041635286 -0.0075014187 -0.0027682371 0.034182202
0.023781016 -0.019593963 -0.025989944 0.0131009 0.034488175 -0.002679195 -0.0010825867 -0.0336611
0.004652129 0.07467703 0.037775356 0.030974664 -0.030408947 0.030517787 0.010806237 -0.0030470162
-0.010619263 -0.0047396645 0.028284801 -0.03442433 0.011424586 -0.023716163 -0.016051324 -0.0014907249
-0.028402386 0.015944079 0.01871378 0.02015778 0.0018430842 0.039769873 0.0020852385 -0.0005563015
-0.005838139 0.03692281 0.0023818414 0.010918718 -0.0072659766 -0.013262063 -0.021035869 -0.0025268907
-0.03872746 -0.0067781676 0.0041200286 -0.018772101 -0.00051870977 0.009582296 -0.009198443 0.00071372377
0.013018462 0.044727873 0.12009585 -0.00015758874 0.0040133083 0.05166464 0.051417373 0.013370321
0.0070694 -0.0025020055 -0.029902577 -0.013004092 -0.026467618 0.005112352 -0.026008671 -0.009535675
-0.014758203 -0.010545227 0.035335116 -0.008157656 -0.0069612856 -0.08593194 0.013119197 -0.012937565
0.00880655 -0.019326232 0.030208832 0.013181332 0.019623915 0.0031321284 0.023178834 -0.042478032
-0.034867924 -0.020497758 -0.006687325 -0.014278435 0.010263336 0.001728253 0.024820881 0.013000558
0.039949834 0.054932687 0.02950464 -0.030799052 0.01895938 0.045357686 0.03217268 0.011350609
-0.016984338 -0.031410158 0.058530826 0.047188073 0.07447845 0.020640079 -0.028054416 0.01452259
-0.047161747 0.045966 0.05190481 -0.017649624 -0.06321847 -0.03838218 0.031472325 -0.018728983
0.012480863 -0.026907707 0.04889633 5.3915428e-05 -0.09055807 0.008490069 -0.0150239505 -0.037226904
-0.02790308 -0.033371482 -0.01627906 -0.0077844076 -0.037862636 -0.014546408 0.0064060665 0.005017952

bias f4 [128]
00000000: 7dfd 55bd c77e f43c 8f27 e0bc c4c7 ecbb
00000010: 5564 cbbc 33b9 49bd 45c1 343c f6a5 52bd
00000020: 4c4d 813c cb5a 873d 2bb5 a1bc 7fbc f73b
00000030: 2c37 183d 3c05 083c 16e6 29bd 1411 8abd
00000040: 09fb 88bd 89b4 babb cb38 92bd f3a2 b9bc
00000050: 07e6 dbbc 6d22 013d 5478 4e3c dfc1 66bd
00000060: 318a e4bb 5fef 3d3c b78c fb3c 4965 b63c
00000070: f9e7 82bd d624 473d 230b 983c 7d6a 823d
00000080: 06f0 913a 36f3 6fbd 3c72 33bd 647e 8bbd
00000090: b7e8 443d 9c13 f73c 9658 623d 6983 cb3c
000000a0: 603e 013d aea6 1bbd 59cd 453c c4cb 8f3d
000000b0: e4d9 673c ada1 0abc 1261 a33a 6870 f83c
000000c0: f4ea 833d 6d50 cf3c 9f70 15bc c181 e5bc
000000d0: c8f2 88bd 4340 0e3d ca58 7b3d cfed 183c
000000e0: 0f02 923b 3fda 47bd 732c 023c a4ab e23c
000000f0: 79fa c13d ae13 823b 549f 5a3c 6703 47bc
00000100: 9ecc d8bc 42fb 61bd 915d 90bc 743f 703a
00000110: 60af 56bd 0094 203d c3c7 3e3d 6c08 45bd
00000120: 3bec a3bd d8fb 173d d614 efbc 8622 78bd
00000130: 861f 2d3d 1f5d c8bc b4c7 51bd b91c 073d
00000140: 9ea2 0c3d 1dd9 1fbd ea3c ca3c 82c6 f53c
00000150: 0fde dd3c fac8 053d 82c5 f23c c3f5 0b3d
00000160: cdd8 f63a aac6 aabb 5c15 4d3d 55ac 183d
00000170: 55ab f9bc 73fa 02bd 8eed 9f3c 50db 9abb
00000180: d80e c33c b598 243d a4ff 043c 7f0a bf3c
00000190: d8f0 67bd edf1 5fbd 3807 d7bb 0ec9 823d
000001a0: 3b77 bebb 7e78 a63c ff24 8eba 5904 463d
000001b0: e25e efbc ccde 343d 8504 173d 2b66 cf3c
000001c0: 96fc 023d 9b20 99bc 59d0 e03b cd2b 1f3d
000001d0: a593 94bd ee26 0d3d 05d5 883a 85aa 19bd
000001e0: 7c59 41bd ed02 273d 4ed7 09b7 b56b 46bd
000001f0: 6f15 71bd 0679 c5ba ba11 47bb de20 b73c
-0.0522437 0.029845608 -0.027362613 -0.0072259624 -0.024828115 -0.049248885 0.011032407 -0.051427804
0.015783928 0.06609114 -0.019739708 0.0075603123 0.03716199 0.008302029 -0.041479193 -0.06741539
-0.06688506 -0.005697791 -0.07139739 -0.022660708 -0.026843084 0.03152697 0.012601931 -0.056337234
-0.0069744815 0.011592715 0.030706747 0.022265093 -0.063919015 0.048619114 0.018559998 0.06367967
0.0011134155 -0.058581553 -0.043810114 -0.068112165 0.048073497 0.030160718 0.055260263 0.024842935
0.031553626 -0.038000755 0.0120728845 0.07021287 0.01415107 -0.008461398 0.0012464842 0.030327037
0.06441298 0.025306905 -0.009121089 -0.028015973 -0.06686932 0.034729254 0.061363973 0.009334042
0.004455812 -0.04879212 0.007945168 0.027669735 0.09471602 0.003969631 0.013343651 -0.012146807
-0.026464757 -0.05517126 -0.017622741 0.00091647287 -0.052413344 0.039203644 0.046577226 -0.048103735
-0.08004042 0.03710541 -0.02918474 -0.0605798 0.04226639 -0.024458466 -0.051215842 0.032986376
0.03433477 -0.039025415 0.02468725 0.030001882 0.027083425 0.03266237 0.029635195 0.034169924
0.0018832922 -0.005211671 0.050069198 0.037273724 -0.030477205 -0.03197713 0.019522455 -0.004725851
0.023810789 0.040184695 0.00811759 0.023320435 -0.05662617 -0.054674078 -0.00656214 0.063860044
-0.005812553 0.020321127 -0.0010844766 0.04834399 -0.029220048 0.04415779 0.036869545 0.025317272
0.031979166 -0.018692305 0.0068607745 0.03886013 -0.072547235 0.034460954 0.0010439461 -0.037516136
-0.04720448 0.040774275 -8.215966e-06 -0.04844256 -0.05885833 -0.0015065975 -0.0030375556 0.02235454

weight f4 [10, 128]
00000000: c268 283e 98f2 94be 954a d5bd ac8a 67be
00000010: 73a3 78be 8604 8bbe f2e5 cabd 29d7 e0be
00000020: 3f06 46be 99d7 003e 8eb7 77be 2611 04be
00000030: e92f 3cbe df8c 36be 3a52 293e 3fc2 78be
00000040: 07f1 0dbe 7a18 9b3d e123 08be 3944 34be
00000050: bea9 78be 6f9a 863d f843 063e 7d0b 8dbd
00000060: adc0 9e3e 13ce 8dbe 4919 64be ce98 89be
00000070: 91c2 38be 4e27 5cbc 2cd6 fa3b 977e bfbd
00000080: 4b89 5cbe 98b6 423e 625f c5bd 2f76 56be
00000090: 03f8 fa3d 7d55 11be 5e4e 17be 6a3e 51be
000000a0: 9d49 29be 74e7 713e 5984 673c d28a 21bd
000000b0: 06a2 0d3e e7ff 2e3e 53ab a83d a805 acbe
000000c0: 4adf 34be 2e1b c2bd 58fd 96bd 5e20 11be
000000d0: 6618 6fbe 89a3 9a3e 410d 963e d072 40be
000000e0: 7b23 75be 0708 3bbe 30d0 853e 2744 b0be
000000f0: 1571 253e b036 88be 63a0 35be 6667 57be
00000100: fb2a 7cbe 058c 30bd b3dd 50bc 6fe8 3bbe
00000110: 2921 43be fb68 eabc 9144 72be 50c5 033e
00000120: 0da4 fa3d 0bde 9c3d 9919 13be 9040 043d
00000130: 44ea 4e3d 017c 0fbe f129 323e 32fc 2abe
00000140: 14fd 633e d193 96be 783a d8bd 8db4 6fbe
00000150: 8016 a33e a308 8abd 3181 a03d d88e 753d
00000160: 26fb 853e c649 19be 4ac2 333e 1878 513d
00000170: 5b32 9fbe 1936 33be f9af 863e 60e8 423e
00000180: a51b 4a3e 66ba 153e 9e38 51be d717 79bd
00000190: 7181 7abe 4b44 2abe 34f6 573e 9210 623e
000001a0: 2361 da3d 0d04 0d3e 6e8c cfbd 8dc5 1abe
000001b0: 5863 4abe 50bb 30be f5f4 91be 1885 2dbe
000001c0: e28f 833d c9f1 fa3d ffa9 51bd 1097 aebd
000001d0: 2f07 59be 504b bf3d 6f7f 123e c3ce 7bbe
000001e0: 0f7e bcbd be2e 2e3e 340d 683e b4e4 1d3e
000001f0: fc09 3b3e b9fc 713d 4cd0 89be 627e aa3d
00000200: 7c92 61be 8582 0a3e 842a 27bc f8e8 67be
00000210: 89e1 563e 4cde f4bd 86ee 133e 3d52 c3bd
00000220: 32ec 9d3e b18d 5b3e 2ad0 56bd e9f9 0d3e
00000230: bc65 423e ec0e 183e 79f7 53be 77ea 14be
00000240: 1152 48be b381 543d 3106 10be 3197 843e
00000250: 80eb 133d 640b 3c3d f085 fbbc b204 3abe
00000260: 887e 94bd 0622 4c3e a8da 163e 5a9c 513e
00000270: 0cdd 18be 9097 243e 697a 88bd 3f83 b13e
00000280: d91f 5a3e 048e 69be f7c0 71be b810 8dbe
00000290: fdd9 e03d edf4 2f3e fcfc 983e afe1 613e
000002a0: 88f2 6b3e c1a1 f4bd d9ae f23d b9f5 783e
000002b0: 8c10 f9bc 43ec 8bbe a790 f3bd 80a5 653e
000002c0: 2ac5 b63e c283 5e3e cee5 3b3d 2502 69be
000002d0: a0b6 9bbe a8cc d53d 71f8 5e3e f111 f13d
000002e0: 4c94 a13e e347 78be 141c 31be a4aa 0e3e
000002f0: 46a0 8b3e e464 4c3e 3517 743e 61d5 1cbd
00000300: d46d 333d 3522 18be 620e ed3d 7502 033e
00000310: 0189 333d 13b0 6f3e ac60 573e bf54 66be
00000320: 0fc8 a9be c06a 2a3e 397c d63c 698d 9bbe
00000330: f5fe 1f3e 65d3 1ebe f037 90be 04d7 453e
00000340: 000c aa3e 2107 0039 0af0 a63d 58f8 5c3e
00000350: 997a d9bd 7a40 db3d 9f9a 463e fb99 81bd
00000360: 3d07 1abe 052e 9b3e ea47 253e aa28 0f3d
00000370: fc4a 53be 779b 1ebe 6c54 f53c 1f96 a5be
00000380: 8e2c 6fbe b338 683e 8fef b43e 35c5 813e
00000390: a46f 8fbe c1b8 19bd f0c5 0dbe 101e f13b
000003a0: fbeb 65ba 22d5 88bb 0572 9ebd 9877 603e
000003b0: 8e6e 343e 8191 7f3e da9f 7e3e c9ee eb3d
000003c0: 4cd0 9e3e 95b3 1fbe bc73 af3d 2810 383e
000003d0: 07e7 57be 6ff2 a93d e643 e63d f512 40be
000003e0: 2760 34be c2a7 343e 6b69 63be 30f4 0ebe
000003f0: e0fd 49be 09bc 123e f139 203e d09f dc3c
0.16446212 -0.29091334 -0.10414616 -0.22611493 -0.24281101 -0.2715189 -0.0990714 -0.43914154
-0.1933832 0.12582244 -0.24191114 -0.12897167 -0.18377651 -0.17827176 0.16535273 -0.24292849
-0.13861476 0.07573028 -0.13294937 -0.1760415 -0.24283502 0.065724246 0.13111866 -0.06886957
0.31006375 -0.27696285 -0.2227527 -0.26874393 -0.18042971 -0.013437105 0.007654926 -0.09350317
-0.21536748 0.19014966 -0.096373335 -0.20943521 0.12254336 -0.14192767 -0.14775988 -0.20433965
-0.16531987 0.23623449 0.014130675 -0.03943903 0.13831338 0.17089806 0.082358025 -0.33598065
-0.17663303 -0.0947784 -0.0737254 -0.14172503 -0.23349151 0.30202892 0.29306987 -0.18793797
-0.23939316 -0.18264781 0.26135397 -0.34426996 0.16156419 -0.26604223 -0.17736964 -0.21035537
-0.24625771 -0.043102283 -0.01274817 -0.18350385 -0.19055618 -0.028614512 -0.23658969 0.12868237
0.122383215 0.07659539 -0.14365233 0.032288134 0.05051638 -0.14012147 0.17398812 -0.16697767
0.2226451 -0.2940965 -0.10558027 -0.23408718 0.31853104 -0.067399286 0.07837141 0.05995068
0.26168174 -0.14969549 0.17554584 0.05113992 -0.31093106 -0.17501105 0.2630613 0.19033957
0.19737108 0.14621887 -0.20431754 -0.06081375 -0.2446344 -0.16627614 0.21090013 0.22076634
0.106630586 0.13771077 -0.10134207 -0.15114422 -0.19764459 -0.17258954 -0.285072 -0.16945302
0.06423928 0.12253148 -0.05118751 -0.08524907 -0.21194147 0.093405366 0.14306425 -0.24590592
-0.09203731 0.17010018 0.22661287 0.15419275 0.18265527 0.059078906 -0.2691673 0.08324887
-0.22028536 0.13526352 -0.010203008 -0.22647464 0.20984472 -0.11956462 0.14446458 -0.0953717
0.30844265 0.2144077 -0.052444614 0.13864864 0.18984121 0.14849442 -0.20699872 -0.14542566
-0.19562556 0.051881503 -0.14064862 0.258966 0.036113262 0.0459093 -0.030703515 -0.18165854
-0.072506964 0.19934854 0.14731848 0.204698 -0.14928073 0.16073442 -0.06663973 0.34670445
0.21301211 -0.22808081 -0.23608766 -0.27551818 0.10979078 0.17183276 0.29880512 0.22058748
0.23041737 -0.119449146 0.11849756 0.24312486 -0.030403398 -0.2732869 -0.118928246 0.22426414
0.356973 0.21729949 0.045873456 -0.22754724 -0.3041277 0.10439426 0.2177446 0.11771
0.31558454 -0.24246173 -0.17295867 0.13932282 0.27270716 0.19960362 0.23836978 -0.03828943
0.043805912 -0.14856799 0.11575009 0.12793906 0.04383183 0.2340701 0.21032971 -0.22493266
-0.33160445 0.16642284 0.02618228 -0.30381325 0.15624602 -0.15510328 -0.28167677 0.19320303
0.3321228 0.00012209687 0.081512526 0.2157911 -0.10619087 0.10705657 0.19394921 -0.063281976
-0.15041824 0.30308548 0.16140714 0.03495089 -0.20634073 -0.15488993 0.029947482 -0.32341096
-0.2335684 0.22677879 0.3533902 0.2534577 -0.28014863 -0.03752971 -0.13845038 0.00735832
-0.00087708206 -0.004175798 -0.07736591 0.21920621 0.17620298 0.24957849 0.24865666 0.11520154
0.31018293 -0.15595849 0.085669965 0.17974913 -0.21084224 0.08298194 0.11243419 -0.18757232
-0.17614804 0.1764212 -0.22208183 -0.13960338 -0.19725752 0.14329542 0.15647103 0.026931673

bias f4 [10]
00000000: c770 28bd 5bfa 473e 3040 ef3c 3d2c a0bd
00000010: 1af1 0cbe 7cf2 16bd 463a 56be bc9d 3f3c
00000020: a000 1e3e ffe7 b23c
-0.041123178 0.19529097 0.029205412 -0.07820938 -0.13763848 -0.036852345 -0.20920667 0.011695322
0.15429926 0.02183914
